assignment2/part2-pytorch/checkpoints/vanillacnn.pth (torch, 236977 bytes, 4 tensors)

conv1.weight f4 [32, 3, 7, 7]
000000 a9 b9 87 3d ae 40 5d 3d 53 e0 2f bd 08 ec 62 3d
       0.06627209 0.05401676 -0.04293854 0.05540088
000010 d6 43 45 bd 7a 3b 4d bd 12 48 01 3d 79 aa d6 bb
       -0.048160397 -0.05010555 0.031562872 -0.0065510836
000020 09 69 9d 3d 76 c8 8a bd f3 84 90 3c 15 2c 61 3d
       0.076860495 -0.06776516 0.01764152 0.05497368
000030 3d 4d b5 bc 8b f6 8d 3d a7 97 9f bd 54 31 4e 3d
       -0.022131557 0.0693179 -0.07792597 0.05034001
000040 ca c6 9c bd b1 62 1f bd b3 fe 26 bd ea 7b 7e 3c
       -0.076551035 -0.03891248 -0.040770244 0.015532473
000050 b7 27 87 bd cc 78 0e 3d 68 38 8d 3d 26 5a 28 bd
       -0.06599372 0.03478317 0.06895524 -0.041101597
000060 47 5f 69 bb 0d e9 7e 3c 2f 61 39 bd f6 4d 99 bd
       -0.0035609768 0.015558493 -0.045258697 -0.07485573
000070 10 a2 15 3d 2c 8d 69 3d e1 99 9c bd 6b 6d 68 3d
       0.036531508 0.057019398 -0.076465376 0.056744974
000080 9c 90 15 3d 9f a6 f8 bc 35 c0 9b bc 7f 0b ba bb
       0.036514863 -0.030352889 -0.01901255 -0.00567764
000090 2f 3a c4 bc 16 19 e9 bb e1 f6 f4 3c a3 fa 81 3d
       -0.023953525 -0.007113586 0.029902877 0.06346633
0000a0 8f ea 78 3d 31 13 6c bd 88 f1 2c 3d 02 54 e1 bc
       0.060770568 -0.05763549 0.04222253 -0.027505878
0000b0 5a 98 31 3c cd e5 0d bc d3 51 66 3d 8c eb 81 3b
       0.010839546 -0.008660746 0.056230377 0.003964847
0000c0 36 81 3a bd e9 34 0a 3d 07 27 18 3c fb e4 2d 3d
       -0.04553338 0.033741865 0.009286649 0.0424547
0000d0 35 06 6c 3c a6 a1 36 bc e1 24 40 bc 8e 74 3d bc
       0.014405777 -0.011146938 -0.011727543 -0.011563433
0000e0 0b 07 42 3d cc a8 8e bc 2a 8f 71 bd 83 62 cb 3c
       0.047369998 -0.017414473 -0.058974423 0.024827247
0000f0 9a 2d 17 bd 47 3c 81 3d fa ed 4f bc f9 12 a1 3d
       -0.036908723 0.06310325 -0.012691015 0.07864947
000100 9d 69 25 3d ae 41 97 bd 8a b6 09 3d d7 a8 42 bb
       0.040383924 -0.07385574 0.03362135 -0.0029702687
000110 66 b9 a8 bd c3 37 97 bd 0b 1e 7e 3d fa 05 df 3c
       -0.08238487 -0.073836826 0.06204037 0.02722453
000120 c3 55 2e bc cb 2a 89 3d 95 84 8a bd 89 2c 9c bb
       -0.010640564 0.06697615 -0.06763569 -0.004766051
000130 2a 3d 09 3d 84 33 da 3c 5d 46 8d 3d 67 55 1d bd
       0.033505596 0.026635893 0.06898186 -0.038411524
000140 ef 9e eb bc f4 de 91 3c e9 2f 10 3d 04 d7 8b bd
       -0.028762309 0.017806508 0.03520194 -0.0682812
000150 42 4b 09 bd 83 0c 8d bd ea a5 3c 3d 0c 20 86 bd
       -0.033519037 -0.06887152 0.046056665 -0.06549081
000160 01 eb bc bb 24 44 83 3d 7a 82 8b bd 78 0b 8b 3c
       -0.0057653193 0.06409481 -0.06811996 0.016973242
000170 2d 07 9a 3c 1c 3a 9e 3d 84 e4 82 3c a6 78 97 3c
       0.01880225 0.07725927 0.015978105 0.018490147
000180 a7 de 6a 3c f6 20 93 bc 84 84 c4 3c 55 f7 55 3d
       0.014335311 -0.017960053 0.02398897 0.052237827
000190 76 06 a2 3d cd 8e ea 3c c4 17 92 3d bd 0c 9d bd
       0.079113886 0.028632546 0.07133439 -0.07668445
0001a0 c7 39 95 bb cc 68 90 bd 86 03 21 bc bb a5 12 bc
       -0.0045540067 -0.070512384 -0.0098275 -0.008950646
0001b0 c0 6c 91 3d b1 96 9e 3d 9b a9 45 bc 74 08 1e 3d
       0.071008205 0.07743586 -0.012064363 0.03858228
0001c0 f3 c2 f2 bb 1d 60 9f 3d 6f e1 97 bd 65 fc 98 bc
       -0.0074084937 0.07782004 -0.07416045 -0.018675039
0001d0 cd c1 1a 3c d9 ef 92 3d 28 e4 73 bd f1 a6 37 bd
       0.00944562 0.071746536 -0.05954376 -0.044836942
0001e0 2b 75 29 3c c1 c3 8d bd 7e c0 96 3d 38 5a 42 bd
       0.010342876 -0.06922103 0.07360934 -0.04744932
0001f0 1f 84 4b bd 06 1d e7 bc 84 6c 9d 3d 36 5e 9c 3d
       -0.049686547 -0.028212082 0.07686713 0.07635157
000200 c8 72 76 bb 3f 78 c2 bc 18 37 38 bd d2 05 26 bc
       -0.0037605036 -0.023738978 -0.044974416 -0.010133224
000210 be 8b a7 bb 41 0d a3 bc 17 73 65 bc a3 4c 3c bd
       -0.005113094 -0.01990378 -0.01400449 -0.045971524
000220 f2 ff 58 3c b6 50 bc 3c af ca ed bc 33 ea 06 bd
       0.013244616 0.022987705 -0.029027311 -0.032938194
000230 4f 5c 77 3c 46 5b 6e 3d 73 1b 7c 3a 09 32 1d bd
       0.015097692 0.058192514 0.00096171274 -0.038377795
000240 21 d1 b3 3c 70 86 7a 3d b3 fa a3 3d 2c 48 48 bc
       0.021950306 0.061163366 0.080068015 -0.012224238
000250 8d a7 c4 bc dd 74 a9 3c 76 7c d0 3a 8d be 25 bd
       -0.024005676 0.020685608 0.0015906233 -0.040464927
000260 b1 08 2b bd 53 8a 8e 3d dd 49 b1 bc 10 09 55 3d
       -0.041756336 0.06959977 -0.021641666 0.052010596
000270 1d 09 08 bc c6 ee 04 bb 70 91 94 3d c9 5d 98 bd
       -0.008302954 -0.0020283922 0.072543025 -0.07439763
000280 0c 2a d6 3b 3e 6d d6 3c d0 a0 85 3c bf 55 50 bd
       0.006535774 0.026175138 0.016312033 -0.050863024
000290 6d 91 3d 3c 01 6c 89 3d a1 9e a2 3d ae 56 a9 bb
       0.011570317 0.06710053 0.07940412 -0.0051678037
0002a0 45 9c 43 3c bf 3f 58 bc 87 15 8d 3d 3f 31 ab 3c
       0.011939113 -0.013198792 0.06888872 0.020897506
0002b0 90 21 9f 3c fc 38 8d bd 87 c9 a8 bc a7 67 81 bb
       0.019425184 -0.068956345 -0.020603908 -0.003949124
0002c0 fd 3d 24 bd 5c 80 20 bd 0c 48 3d bd 5c a9 a0 3d
       -0.04009818 -0.039184913 -0.046211287 0.07844803
0002d0 cc c7 44 3d 24 a7 a6 bd 1c 87 d6 bb 19 ce 80 bd
       0.048042104 -0.08137348 -0.006546868 -0.0628931
0002e0 25 76 98 3c 1a 82 6b bb 2e 3c 7a bc 97 1a b8 3c
       0.018611023 -0.00359357 -0.015273137 0.022473617
0002f0 19 16 24 bd 6a 4e 7c bc 92 68 7d bc b8 1f 89 3d
       -0.040060136 -0.015399555 -0.015466826 0.06695503
000300 d4 67 1f bc 52 d1 04 bd 51 bf a9 3d 35 9e 79 bd
       -0.009729344 -0.032426186 0.08288444 -0.060941894
000310 bc 06 76 bd 12 0c 3a 3d 92 03 22 3c 8e 75 fd 3b
       -0.060065016 0.045421667 0.009888547 0.007734961
000320 6c b0 53 3d 42 07 90 bd d7 0e e6 3c 98 e2 77 bd
       0.05168192 -0.07032634 0.028083248 -0.06051883
000330 37 cd 81 3d 39 e9 42 bc 88 57 d4 bc f4 3f e2 bb
       0.0633797 -0.011896425 -0.025920644 -0.0069045965
000340 4f da 90 bd 46 6f 89 3c 12 5e ca bc b5 d5 9c bd
       -0.07072889 0.016776692 -0.02470306 -0.07657949
000350 f5 64 8f bd 36 f7 99 bd 18 83 1e 3b 75 00 eb 3c
       -0.07001678 -0.07517855 0.0024187025 0.028686741
000360 ca 4d 0f bc aa 3c 95 bd 32 9e 23 3d ca da 9c 3d
       -0.008746574 -0.072869614 0.03994579 0.07658918
000370 67 e0 9c 3b 1d fb a6 3d bb 41 5d 3d 57 59 e0 3b
       0.004787493 0.08153365 0.054017764 0.0068465876
000380 23 b8 ea 3b 93 ba 52 bd fb 75 92 bd b5 16 2c 3d
       0.007163064 -0.051447462 -0.07151409 0.042013843
000390 0c e5 a6 3d d6 52 21 3a b0 4f af bc 3a 4f 91 3d
       0.08149156 0.0006154006 -0.021400303 0.070951894
0003a0 91 1c 10 bd 90 5d 26 3d 56 02 3f bc a8 25 59 3c
       -0.035183493 0.040616572 -0.011658272 0.013253607
0003b0 a5 e5 cd 3c e2 fa f8 3c 00 62 c7 3c f2 11 2b 3d
       0.025133917 0.030393068 0.024338722 0.04176516
0003c0 62 fd d0 bc 01 e4 9f 3d 3a ee a0 3d 38 82 47 bd
       -0.025511447 0.0780716 0.07857938 -0.04870817
0003d0 64 12 3f 3d 6b de 42 3d cb 0c b6 bd 44 40 10 3d
       0.046648398 0.047575396 -0.08889159 0.03521754
0003e0 46 e6 46 3d 26 e2 fc bb 02 ca 5a 3d 6a b7 2c 3d
       0.04855945 -0.0077173887 0.053415306 0.042167105
0003f0 89 64 36 bc 79 82 68 bd 23 1f 46 3d a8 51 94 3d
       -0.011132368 -0.056765053 0.048369538 0.07242137

conv1.bias f4 [32]
000000 45 b6 a8 bd 2e e8 a5 bd 2a 95 a1 3d 04 e9 ec 3d
       -0.0823789 -0.081009254 0.07889779 0.11567882
000010 7f 0e 7b 3c f6 fd 56 3d 26 25 32 bc 55 bc 08 3d
       0.01532328 0.05248829 -0.010873115 0.033382732
000020 dc 02 65 bd b5 09 0a bd b9 0e 76 bd b9 f4 9d bd
       -0.05591093 -0.033700664 -0.060072634 -0.07712693
000030 be 71 49 bc b1 99 2b 3c 5a 3c 53 bd b5 e6 c2 3d
       -0.012295185 0.010473655 -0.051571228 0.0951666
000040 c6 fd fb bb d9 98 06 bc 12 7f e2 3c 63 f6 e2 bc
       -0.0076901643 -0.008215153 0.027648482 -0.027705377
000050 3c 92 a2 bd a0 84 9b 3d 53 9a 92 bd d9 e9 7d bc
       -0.07938048 0.075936556 -0.07158341 -0.015497648
000060 9a a0 3c 3d ac 10 94 bd 3a df 5e bd ca 73 3a 3c
       0.0460516 -0.072297424 -0.054412104 0.011380145
000070 89 88 66 bd f4 5c 64 3d 1d 25 dd bc 33 8b ae bc
       -0.056282554 0.05575271 -0.026995236 -0.02130661

fc1.weight f4 [10, 5408]
000000 5f 1e 70 bb 60 18 83 bb af 4a 37 bb d9 09 a5 bb
       -0.0036639196 -0.0040007085 -0.00279681 -0.0050365743
000010 eb cf 40 3c a9 cb e5 bb d0 00 41 bc b0 f2 0e bc
       0.0117683215 -0.0070128036 -0.011779979 -0.008724853
000020 95 e4 6b bc 8a 6a 36 39 49 64 17 3c e5 18 57 bc
       -0.01439776 0.00017396561 0.009240218 -0.013128494
000030 b3 18 f3 3b 7b 53 b3 bb 03 7e 50 bc 2f d5 08 bc
       0.007418716 -0.005472598 -0.012725356 -0.008351608
000040 86 6b 60 bb a6 77 47 bc e8 8b 1c 3c e6 16 54 bc
       -0.0034243776 -0.0121745225 0.009554841 -0.012944913
000050 ae f0 84 bb d0 37 70 bc fa 5c d9 3b a4 4f 7c 3b
       -0.0040570116 -0.014661744 0.006633398 0.0038499618
000060 f1 69 32 3c 94 57 1b bc 82 22 69 bb d2 64 9f 3b
       0.010889516 -0.0094813295 -0.0035573547 0.0048643136
000070 24 f5 d6 ba 8d 90 21 3c 50 82 9f bb ad 44 cf 3b
       -0.0016399962 0.009861124 -0.0048678294 0.0063253255
000080 b5 fc a0 3b 75 a2 2f bb 5a 04 47 3b 74 b0 da 3b
       0.0049129375 -0.0026799713 0.0030367584 0.006673867
000090 4f 18 07 bc a1 bf 0c bb 23 5a d3 3b 55 c5 5a 3c
       -0.008245542 -0.0021476524 0.006449954 0.013352712
0000a0 39 fb 35 3c a1 de 35 bc c4 0b 5e bc 84 de 36 3c
       0.011107259 -0.011100442 -0.01355261 0.01116145
0000b0 6d dc 1a bb 14 37 38 bc 39 a3 1e 3c 15 f2 f2 bb
       -0.002362992 -0.0112436 0.00968247 -0.0074141123
0000c0 58 53 1e 3c 5d 84 84 bb 28 70 98 bb 4d 16 02 bc
       0.009663425 -0.0040440992 -0.004652042 -0.007939887
0000d0 40 57 82 3c a5 ae 10 bc 9e e6 08 bc 09 43 05 bc
       0.015910745 -0.008830701 -0.008355765 -0.008133658
0000e0 33 a0 2f bb 54 db 87 bb e1 3b 01 bc 68 c5 c3 ba
       -0.0026798367 -0.004146019 -0.007887811 -0.0014936151
0000f0 80 c3 05 bc 8e 90 35 bb d2 f4 8d 3a 6c 3d 3b bc
       -0.008164287 -0.002770457 0.0010830408 -0.011428218
000100 5a f3 00 bc ef 36 ae bb e7 a1 f1 3b 45 85 d6 bb
       -0.0078705195 -0.005316607 0.0073740366 -0.0065466487
000110 9c cf 61 ba 9f 94 78 bb ca bd 9b bb 33 13 86 3c
       -0.0008614005 -0.0037930382 -0.004752849 0.016366577
000120 bd 31 2e bc c4 77 b5 bb 66 96 80 ba a8 e9 cc bb
       -0.010631976 -0.005537959 -0.0009810447 -0.00625344
000130 41 87 b2 bb 8f 55 b7 bb 18 96 7d 3c 32 c1 52 bb
       -0.0054482524 -0.005594916 0.01547768 -0.003215861
000140 af 42 b9 3b 19 19 c0 3a c4 b1 b1 ba 2a 52 4a ba
       0.0056537013 0.0014655917 -0.0013557007 -0.0007717932
000150 3f cf 15 3c 55 ce 09 3c 22 79 1d 3c 62 1d 38 bc
       0.00914365 0.00841101 0.0096114 -0.011237474
000160 8c 13 48 3b aa 73 24 bc a1 52 32 ba 69 0c 17 bc
       0.003052923 -0.010037342 -0.0006802474 -0.009219267
000170 af 34 be 3b 60 c4 d6 bb d2 2f f1 bb 7a 92 0b bc
       0.00580462 -0.0065541714 -0.007360437 -0.008518809
000180 6b a2 85 39 76 55 96 bb 82 ed e8 bb d9 5f 3a 3c
       0.00025488748 -0.0045878245 -0.0071083913 0.011375391
000190 0e f0 4a 3c 15 bf ee bb be 74 94 bb 27 e4 43 3c
       0.012386335 -0.0072859623 -0.0045305183 0.011956251
0001a0 21 b8 10 bc d9 50 f3 3b 1b a2 44 bc df f2 82 3b
       -0.008832962 0.0074254093 -0.01200154 0.0039962376
0001b0 a1 38 61 3b 0c 85 eb 3a 5b 5b 9f 3b c6 ff 36 bc
       0.003436603 0.0017968728 0.0048631853 -0.01116938
0001c0 e4 86 9c ba 36 4d 10 bc a4 8a 6d bb b1 23 d6 3a
       -0.0011942056 -0.008807471 -0.0036245966 0.0016337541
0001d0 17 3b 3e 3c 9a c2 ff ba 4c 54 a3 3b a7 57 47 b9
       0.011610768 -0.0019512952 0.004984414 -0.00019010772
0001e0 d9 c0 1e bc 8c f8 6e 3b 00 28 15 3c 11 86 9a ba
       -0.009689533 0.0036464063 0.009103775 -0.0011789222
0001f0 c3 d3 df 3b 37 94 99 bb f0 8b c7 3b a2 b7 3f 3a
       0.006830664 -0.004686858 0.00608968 0.0007313435
000200 5c 8f a7 bb 1c a9 27 3c 53 5f 66 ba 8c b4 2e 3c
       -0.0051135253 0.01023319 -0.0008788008 0.010663163
000210 0f 21 33 bc 80 91 0e 3b d7 81 b2 3b 43 91 20 3c
       -0.010933175 0.0021754205 0.005447607 0.009800258
000220 a1 4f e1 bb be ed 22 3c 63 31 eb ba c7 f2 8a bb
       -0.0068759476 0.0099443775 -0.0017943796 -0.004240367
000230 0d eb 33 b9 d0 2a 48 3c 1a 0c 07 3c 17 67 cf bb
       -0.00017158334 0.012217239 0.008242631 -0.006329428
000240 aa 40 71 3b d0 96 45 bc 63 5d 61 bc 10 da 53 3b
       0.0036812224 -0.012059882 -0.013755175 0.003232602
000250 8b 3f 25 3c e2 16 aa ba de 68 78 bc c2 82 e3 ba
       0.010085951 -0.001297679 -0.015161721 -0.0017357694
000260 49 aa 7e ba 23 05 a2 bb f5 96 72 bc b0 73 a0 bb
       -0.00097147055 -0.00494446 -0.014806499 -0.0048966035
000270 b0 bd 27 3c 66 6a e3 bb f6 81 c8 3b e2 36 57 3a
       0.010238096 -0.006940174 0.006119008 0.00082097773
000280 58 99 03 bc 72 73 75 3b fb 9b ab bb d9 15 57 bc
       -0.0080321655 0.0037452844 -0.0052371 -0.0131277675
000290 b5 88 af bb ea 36 9b 39 77 f3 01 3c 69 5f 61 3b
       -0.005356873 0.00029604818 0.007931582 0.0034389144
0002a0 df 41 a2 bb 4b 0c 5a 3a b9 e5 1d 3a 59 d1 80 3a
       -0.0049517 0.0008317872 0.0006023306 0.0009828015
0002b0 70 4e df bb 6a 96 08 bc 24 9b 23 bc f8 4d c2 3b
       -0.0068147704 -0.008336643 -0.009985719 0.0059297048
0002c0 78 00 dd bb 3a f9 dd 3b e8 95 41 bc 98 85 aa bb
       -0.0067444406 0.006774095 -0.011815526 -0.005203914
0002d0 0c 57 29 3c 05 3e 4a ba 73 73 28 b8 4f 88 3d bc
       0.010335695 -0.000771493 -4.016184e-05 -0.011568143
0002e0 54 3e 5e bc 2f a7 c4 bb ae de 8b 3b d8 75 55 bb
       -0.013564665 -0.006001375 0.004268489 -0.003257146
0002f0 b5 75 7a bc 1d 51 2e bc 7b 61 a5 3b d3 0c 32 bc
       -0.015286853 -0.010639456 0.005047021 -0.010867315
000300 30 4d ed 3b b9 61 3f bc 06 27 20 3c 27 de 5c bc
       0.0072418675 -0.011681014 0.009774929 -0.0134807
000310 ac e2 34 3c 48 4e 91 bb 08 7c 62 bc 26 b3 4f bc
       0.011040371 -0.0044343807 -0.013823517 -0.01267699
000320 e0 d5 17 bc 34 be e8 bb c3 c6 4a ba 8f 9a de 3b
       -0.0092673 -0.007102752 -0.0007735306 0.006793327
000330 a2 7d 90 ba b3 4e 3a bc ff 98 eb b9 a2 47 b5 3b
       -0.001102377 -0.011371302 -0.00044936684 0.005532221
000340 da 89 83 ba 77 fb 05 3c 15 5f d3 bb b3 8c ed bb
       -0.001003559 0.00817763 -0.0064505436 -0.0072494387
000350 54 f5 28 bc bb 79 2c 3c 40 f5 bd bb 57 1a 2a b9
       -0.010312397 0.01052707 -0.0057970583 -0.00016222276
000360 79 e0 10 3c 42 d2 6c 3b 24 9a 36 bc 7d ea 47 ba
       0.008842581 0.0036136066 -0.011145148 -0.0007626189
000370 70 54 08 3c 1d 55 4e 3c 11 2f 6f bb 09 0f d0 bb
       0.008320913 0.012593535 -0.003649656 -0.0063494486
000380 e8 9b ed 3b a8 5c ce b9 e6 31 31 3c a0 a4 3b 3c
       0.0072512515 -0.00039360416 0.010815119 0.011452824
000390 85 90 33 3a 7c 99 76 bc 0e a2 b4 bb 4b da e2 3b
       0.0006849843 -0.015051242 -0.0055124825 0.006922995
0003a0 92 ad 72 3b 9c ca a6 3b 4b 20 20 ba 44 34 62 bb
       0.0037029725 0.005090071 -0.00061083277 -0.0034516016
0003b0 af f9 80 3c 35 21 1d bc bc fe 4c 3a 8b eb be bb
       0.015744058 -0.009590437 0.0007819941 -0.0058264188
0003c0 41 56 89 3a 6c b4 ef 3b 19 9c e1 bb b4 75 8f bb
       0.0010477976 0.007315209 -0.0068850634 -0.004378045
0003d0 95 aa 9b bb 4b 94 2e bc b5 f3 68 bb 93 7c 62 3c
       -0.0047505596 -0.010655473 -0.0035545651 0.013823646
0003e0 cb 7d 51 3c 07 3d 10 3c a7 26 19 3c 5f 16 96 3b
       0.012786339 0.008803613 0.009347594 0.0045803036
0003f0 e6 e9 be 3b a5 3e 14 bc 53 9e 08 bc f7 c7 f5 3a
       0.0058262227 -0.009048139 -0.008338529 0.0018751611

fc1.bias f4 [10]
000000 4e 85 f7 bb 55 95 3b bc 50 8c c3 3c 10 cd b0 bb
       -0.007553733 -0.011449178 0.023870617 -0.005395539
000010 e2 97 bc 3c e5 5c 02 bc 58 82 3e 3b 88 81 08 bc
       0.023021642 -0.007956718 0.002906939 -0.008331664
000020 48 f1 87 3b 1f b2 cc bb
       0.004148636 -0.0062468196
